dd5.pt (torch, 405838 bytes, 16 tensors)

conv1.weight f4 [4, 1, 21]
-0.4044764 -0.17053153 -0.2300093 -0.099150114 0.1546348 0.023962198 0.021229789 -0.06424561
0.16368136 0.18460563 -0.055862535 0.09131207 0.26139206 0.22069298 0.2614567 -0.039098777
0.05010844 -0.23161611 0.024896923 -0.023142604 -0.21407045 0.16431507 0.023399344 0.14678937
0.1958666 0.13392557 0.12101325 0.116456695 -0.10161875 -0.12387716 -0.11242428 -0.30137047
-0.004977411 -0.023833597 0.061502397 0.1363007 -0.026729496 0.1968839 -0.072320506 0.16416778
0.23532371 0.13596337 -0.03414882 -0.059289098 0.11367557 0.21921557 0.09606881 0.040808566
-0.07107379 -0.02750337 -0.15139303 -0.2458344 0.027029548 -0.123190954 -0.13609678 -0.06611535
0.16361327 -0.083640285 -0.112480864 -0.21593714 -0.19968279 -0.051213946 -0.14706743 0.2043611
-0.0002168667 0.3027727 -0.13525704 0.23459053 0.20372449 0.11643321 0.18399742 -0.16701712
0.14839731 -0.10919576 0.14774898 0.17843293 -0.2467491 -0.06643498 -0.20795673 -0.049958073
-0.17190067 0.06592537 -0.35620996 -0.33913743
00000000: 8817 cfbe d19f 2ebe 8f87 6bbe 370f cbbd
00000010: 9658 1e3e 5f4c c43c 18ea ad3c 3493 83bd
00000020: 169c 273e 4209 3d3e 1dd0 64bd d301 bb3d
00000030: 2ed5 853e 57fd 613e a7dd 853e 0a26 20bd
00000040: 823e 4d3d c62c 6dbe a2f4 cb3c 8f95 bdbc
00000050: 4935 5bbe 3642 283e fbaf bf3c f44f 163e
00000060: 4191 483e c923 093e cbd5 f73d d980 ee3d
00000070: 7e1d d0bd 4fb3 fdbd b33e e6bd 3b4d 9abe
00000080: 8d19 a3bb ad3e c3bc f0e9 7b3d 6992 0b3e
00000090: d1f7 dabc ef9b 493e c61c 94bd 991b 283e
000000a0: b3f8 703e fb39 0b3e a2df 0bbd 20d9 72bd
000000b0: bdce e83d 0c7a 603e b9bf c43d e226 273d
000000c0: 238f 91bd bf4e e1bc c606 1bbe 03bc 7bbe
000000d0: 126d dd3c 8a4b fcbd f45c 0bbe 7c67 87bd
000000e0: 3d8a 273e 994b abbd 5e5c e6bd a01e 5dbe
000000f0: a579 4cbe b7c5 51bd d898 16be 0944 513e
00000100: b666 63b9 0605 9b3e d280 0abe 8038 703e
00000110: 279d 503e 8974 ee3d d269 3c3e 8906 2bbe
00000120: 77f5 173e 07a2 dfbd 824b 173e 1fb7 363e
00000130: ccab 7cbe 100f 88bd 9cf2 54be d6a0 4cbd
00000140: bb06 30be e103 873d 2761 b6be 6ca3 adbe

conv1.bias f4 [4]
0.05804974 0.061150916 -0.08570042 -0.016089179
00000000: 90c5 6d3d 6279 7a3d b483 afbd 74cd 83bc

conv2.weight f4 [16, 4, 23]
-0.01691859 -0.059143677 0.110508956 0.028376954 0.10524919 0.05686215 -0.055239227 -0.03940141
0.029558126 0.037425473 -0.008006787 -0.1387845 0.032142032 -0.014805662 0.054807406 -0.028412396
-0.14688809 -0.18841533 -0.25347984 -0.20146331 -0.1832893 -0.13558422 -0.14225206 -0.04760784
0.12266066 0.053373717 0.022295522 0.113037825 -0.06866894 0.047817837 0.0828223 -0.038793907
-0.0016241263 0.06708649 0.022458134 -0.08336161 0.04015269 0.062423155 0.051730856 -0.06436002
-0.12957038 -0.0066865296 -0.12653653 -0.06326123 0.03645149 -0.1382432 -0.08751242 -0.17709373
-4.4809723e-05 -0.0029436457 0.00559972 -0.039665554 0.02928155 -0.117085434 -0.12649031 -0.10049018
-0.03589815 0.045732293 -0.021751998 0.008654688 -0.06460041 0.0062137367 -0.0068653845 -0.09879205
0.0035809446 -0.009552366 -0.016716657 -0.030703535 0.027397435 0.1444135 -0.073917806 -0.05844801
-0.08629855 0.03216089 -0.008537842 -0.02001203 0.089586884 0.17071731 0.07492317 0.14230286
0.21418457 0.07649835 0.020117046 0.20267625 0.010877005 0.17724209 0.02946272 0.093887515
-0.05099032 0.13970564 0.0369311 -0.08090719 -0.0663558 -0.007022437 0.006015295 0.13733435
0.20998274 0.17280996 0.13056886 0.10505531 0.08076271 0.08172258 -0.0508622 -0.11527369
-0.079990804 -0.15249908 -0.21160592 -0.22654867 -0.22708723 -0.37427595 -0.30160722 -0.31291208
-0.30906183 -0.18503736 0.030217921 0.09643505 -0.019608963 -0.02458314 -0.019297007 0.012641261
-0.00061598606 0.06540262 0.019989206 -0.047144484 0.081277505 0.046812475 0.09055397 0.1134442
0.00781711 0.12611742 -0.053027343 -0.033927895 -0.07489929 0.018848602 -0.085654035 -0.014078045
-0.011319413 -0.07952582 0.038712043 -0.14881985 -0.14406584 -0.016092122 -0.12220552 -0.073252544
0.03230047 -0.061537426 -0.06562186 -0.020178605 0.10787968 0.06965479 -0.0031206273 -0.0016259488
-0.07005763 0.09586293 0.0062220204 -0.03165393 0.018386297 -0.06388591 0.004153542 0.0067547513
0.10711252 -0.053536113 0.024179934 -0.05835058 -0.05509118 0.08136843 0.14002118 -0.053086102
0.0930922 0.02724077 0.13127463 0.16713433 0.10404674 0.22104992 0.05615423 0.069566354
0.18034182 0.08482161 0.020093068 0.12363374 -0.023148462 0.02149087 -0.06459231 -0.11789611
-0.116009854 -0.032864604 -0.043497734 -0.1384031 -0.18948539 -0.12145062 -0.020459447 -0.08193041
-0.23469377 -0.23484924 -0.15481365 -0.15019219 -0.037379164 0.06560218 0.043629505 -0.019893989
0.16342673 0.23668721 0.20704874 0.16249757 0.16098586 -0.022424897 0.0007086221 0.046704203
0.06388741 0.05095925 -0.055088393 -0.024626484 -0.05089646 -0.092586525 0.013443073 0.08427549
0.044513106 -0.09353098 0.03934537 -0.10807342 -0.043317772 0.043949768 -0.055030733 0.051650506
-0.062972166 0.113639764 0.09760879 0.08725644 0.08366935 0.035986587 -0.048860013 -0.04170567
0.087341435 -0.049115498 -0.07033915 0.06404311 0.05191302 0.11400858 0.088648 -0.0060546487
-0.08507099 -0.0218975 0.0022475352 0.07253386 0.016493058 0.047927104 -0.013690748 -0.09321556
0.010070264 -0.018612748 -0.10179868 -0.08882877 -0.051035956 0.030138928 0.11959631 0.13498542
00000000: db98 8abc a440 72bd 8552 e23d c976 e83c
00000010: e38c d73d 49e8 683d 8742 62bd 5f63 21bd
00000020: e223 f23c 744b 193d e62e 03bc 861d 0ebe
00000030: 5da7 033d 7393 72bc bb7d 603d 1dc1 e8bc
00000040: d569 16be f3ef 40be 1cc8 81be 664c 4ebe
00000050: 31b0 3bbe 97d6 0abe 86aa 11be 7000 43bd
00000060: 8335 fb3d 669e 5a3d 19a5 b63c 6080 e73d
00000070: 4da2 8cbd a3dc 433d bd9e a93d 5ce6 1ebd
00000080: a3e0 d4ba a464 893d 1ffa b73c 7eb9 aabd
00000090: 2677 243d 6caf 7f3d bce3 533d 30cf 83bd
000000a0: 19ae 04be ad1a dbbb cb92 01be 1b8f 81bd
000000b0: 284e 153d a08f 0dbe b639 b3bd 0f58 35be
000000c0: 13f2 3bb8 2eea 40bb db7d b73b 5978 22bd
000000d0: dcdf ef3c 7dca efbd ad86 01be cccd cdbd
000000e0: f009 13bd c951 3b3d 3f31 b2bc 64cc 0d3c
000000f0: 384d 84bd 9a9c cb3b 05f7 e0bb 7c53 cabd
00000100: 48ae 6a3b 8781 1cbc 5ff1 88bc fb85 fbbc
00000110: 9670 e03c 22e1 133e 3862 97bd 2e67 6fbd
00000120: 4bbd b0bd 23bb 033d 4ee2 0bbc 45f0 a3bc
00000130: 5479 b73d 85d0 2e3e 5271 993d d7b7 113e
00000140: 3353 5b3e 2bab 9c3d 81cc a43c 5d8a 4f3e
00000150: 7735 323c f37e 353e cd5b f13c 1948 c03d
00000160: 3adb 50bd ff0e 0f3e 1145 173d abb2 a5bd
00000170: 8de5 87bd 791c e6bb f41b c53b 60a1 0c3e
00000180: b705 573e 18f5 303e d8b3 053e 3d27 d73d
00000190: eb66 a53d 2b5e a73d e254 50bd 9d14 ecbd
000001a0: 38d2 a3bd b828 1cbe 39af 58be 60fc 67be
000001b0: 8e89 68be 19a1 bfbe 436c 9abe 0336 a0be
000001c0: 5a3d 9ebe 6f7a 3dbe 938b f73c bd7f c53d
000001d0: faa2 a0bc 9562 c9bc c214 9ebc 4b1d 4f3c
000001e0: 207a 21ba cff1 853d 67c0 a33c 931a 41bd
000001f0: d274 a63d 70be 3f3d 5c74 b93d 6f55 e83d
00000200: 5613 003c ed24 013e 3333 59bd faf7 0abd
00000210: cd64 99bd 6268 9a3c 626b afbd 9aa7 66bc
00000220: 0f75 39bc 6fde a2bd 8590 1e3d 3b64 18be
00000230: ff85 13be a0d3 83bc e346 fabd 6e05 96bd
00000240: 7f4d 043d ab0e 7cbd c164 86bd 9a4d a5bc
00000250: 06f0 dc3d 2ca7 8e3d 7083 4cbb ca1d d5ba
00000260: 607a 8fbd c953 c43d 17e2 cb3b 8da7 01bd
00000270: dc9e 963c 9ed6 82bd 701a 883b f656 dd3b
00000280: cf5d db3d af48 5bbd ff14 c63c 0501 6fbd
00000290: 4aa7 61bd 7ea4 a63d b661 0f3e d070 59bd
000002a0: 20a7 be3d 0928 df3c db6c 063e 4325 2b3e
000002b0: 7516 d53d e95a 623e fa01 663d ce78 8e3d
000002c0: 87ab 383e f4b6 ad3d 389a a43c b033 fd3d
000002d0: d8a1 bdbc 9f0d b03c f948 84bd 8473 f1bd
000002e0: 9396 edbd 099d 06bd ae2a 32bd 8bb9 0dbe
000002f0: 7508 42be 1abb f8bd 929a a7bc 21cb a7bd
00000300: 9053 70be 527c 70be 7887 1ebe fbcb 19be
00000310: e51a 19bd 705a 863d dab4 323d b8f8 a2bc
00000320: 5659 273e 225e 723e 9604 543e c365 263e
00000330: 7ad9 243e 6bb4 b7bc d3c2 393a e84c 3f3d
00000340: 67d7 823d a6ba 503d 5ea4 61bd 7bbd c9bc
00000350: ce78 50bd 019e bdbd 5640 5c3c a198 ac3d
00000360: 6053 363d 2c8d bfbd 9c28 213d 9955 ddbd
00000370: fa6d 31bd ac04 343d e867 61bd 7b8f 533d
00000380: 8df7 80bd f7bb e83d 1ee7 c73d 81b3 b23d
00000390: d65a ab3d ac66 133d 7021 48bd 91d3 2abd
000003a0: 11e0 b23d 552d 49bd f90d 90bd 0929 833d
000003b0: bfa2 543d 557d e93d 158d b53d 1366 c6bb
000003c0: b339 aebd 6362 b3bc 624b 133b a28c 943d
000003d0: 731c 873c 364f 443d 294f 60bc cde7 bebd
000003e0: c0fd 243c c379 98bc d47b d0bd dceb b5bd
000003f0: 140b 51bd eae5 f63c e9ee f43d 9e39 0a3e

conv2.bias f4 [16]
-0.026245004 0.08406688 0.03872499 0.10993701 0.026717696 0.053085506 0.037601694 0.027584748
0.0937873 0.085950695 0.079725794 -0.032398824 -0.2569585 -0.13261762 0.068567276 -0.11151835
00000000: c3ff d6bc 422b ac3d 189e 1e3d a826 e13d
00000010: 12df da3c 3070 593d 3c04 1a3d 69f9 e13c
00000020: 8e13 c03d eb06 b03d 4747 a33d a1b4 04bd
00000030: 1190 83be eacc 07be 006d 8c3d bc63 e4bd

conv3.weight f4 [32, 16, 25]
0.05336501 0.059880678 -0.00590808 -0.018163035 0.0018720059 -0.04825095 -0.004312478 0.03464849
-0.007153856 0.07580672 0.08702179 0.05078735 0.029848717 0.05302358 -0.038666017 -0.046928097
-0.011892142 -0.04312153 -0.09144764 -0.09515531 -0.13982055 -0.08222579 -0.064270265 -0.046616726
-0.06541851 0.08665952 0.08121543 -0.004514802 -0.03810457 -0.05741531 -0.105735146 -0.071128465
-0.07189455 -0.005863891 -0.004465878 0.023531994 0.041638903 0.07524519 0.036550026 0.006410476
-0.029433504 -0.019275524 -0.01771605 -0.046602108 -0.08025267 -0.07218909 -0.019912798 -0.043151036
0.022469766 -0.012552827 -0.011282563 0.059752364 0.061288584 0.06351889 0.104687676 0.10697974
0.065505855 0.017647054 -0.016917814 0.08129445 -7.1525224e-05 0.06593884 0.036382705 -0.0062784245
-0.07132645 -0.022458935 -0.065844946 -0.05915263 -0.077780716 -0.0803484 -0.006841773 0.04185359
0.037174843 0.08343899 0.01373759 -0.2037713 -0.19669579 -0.23958744 -0.15045737 -0.0823585
-0.070002005 -0.019383159 -0.012735533 0.028717274 -0.038344163 0.021897592 0.050950486 -0.015804652
0.0043222257 0.041266512 0.068897866 0.057070725 0.08313263 0.028864242 0.066825524 0.010740346
0.013594423 0.006530977 0.048237212 0.034233604 0.05582898 0.037133552 0.08580832 0.05767097
0.091923445 0.060627233 0.10957154 0.085516825 0.043743543 0.0014246847 -0.061500467 -0.09316585
-0.06802255 -0.091769606 -0.032662492 -0.02508363 -0.0023229122 -0.023434257 0.040772155 0.0211581
0.085852444 0.07546701 0.082293615 0.053185053 0.095504515 0.028285667 -0.02857725 0.0151862
0.08366602 0.032600686 0.05730339 0.022290206 0.0031133473 0.09392887 0.107683696 0.13794105
0.06347398 0.09011526 0.011244687 0.03474592 -0.031248204 -0.043260567 -0.03139605 -0.103439964
-0.076247744 0.01992361 0.017383572 0.15026604 0.17078392 0.17592072 -0.029236926 0.045024663
0.032047413 0.01597982 0.004065847 0.06402433 0.028785624 0.033376865 0.097123325 0.06267769
0.08289457 0.02462194 0.083570465 0.050662305 0.022288127 -0.026972178 -0.049652014 -0.046234634
0.0026366182 0.022333944 0.03971124 0.042819943 0.11495065 0.09773428 0.10869505 0.10436936
0.05171588 0.015053601 -0.022058178 0.03824168 -0.005113837 -0.057652324 0.011451343 0.025359467
0.0017387557 0.025911134 0.04203843 -0.0008358612 0.058603786 0.038080502 -0.017434632 -0.049179427
-0.034934495 -0.032365218 -0.133589 -0.052498914 -0.13386872 -0.037986577 -0.059586015 -0.03929715
-0.011859796 0.05995721 0.0689048 0.08989894 0.09102988 0.03745428 0.07338884 0.06287441
0.056438442 -0.01833907 0.045026284 -0.011491528 0.03366693 0.052995645 0.021922853 -0.020300953
0.0038349736 -0.09017208 -0.11006841 -0.016481087 -0.03552725 -0.03346396 0.019721773 0.03991852
0.029238377 0.092709765 0.061061602 0.09099443 0.025447214 0.06701778 0.053095292 0.012209957
-0.020480307 -0.046064887 -0.008041235 -0.040773075 0.024572385 -0.054552823 -0.05958432 -0.042258807
-0.08019293 -0.14404637 -0.08918004 -0.107830726 -0.10695863 -0.05062076 -0.020867337 0.041026402
0.046851777 0.06480756 -0.0051560802 0.01872221 -0.02431608 -0.051358994 0.004847608 -0.056826953
00000000: 4595 5a3d 7145 753d 9198 c1bb a5ca 94bc
00000010: 185e f53a caa2 45bd b04f 8dbb 93eb 0d3d
00000020: e56a eabb 8e40 9b3d 7b38 b23d 6506 503d
00000030: 4c85 f43c 412f 593d 4260 1ebd ad37 40bd
00000040: 42d7 42bc 34a0 30bd e648 bbbd cae0 c2bd
00000050: 1e2d 0fbe ff65 a8bd 21a0 83bd 2ef1 3ebd
00000060: 24fa 85bd 8c7a b13d 4654 a63d e7f0 93bb
00000070: 8a13 1cbd 512c 6bbd ab8b d8bd cdab 91bd
00000080: 733d 93bd e225 c0bb 8056 92bb 2bc6 c03c
00000090: 8e8d 2a3d 261a 9a3d 7bb5 153d f80e d23b
000000a0: 881e f1bc b4e7 9dbc 4021 91bc dae1 3ebd
000000b0: 835b a4bd e0d7 93bd 2a20 a3bc 24bf 30bd
000000c0: 8412 b83c 5faa 4dbc 80da 38bc e5be 743d
000000d0: bd09 7b3d 3116 823d 7e66 d63d 3218 db3d
000000e0: ef27 863d 8e90 903c 3a97 8abc b47d a63d
000000f0: d0ff 95b8 f10a 873d 0806 153d 3ebb cdbb
00000100: 9a13 92bd cdfb b7bc b7d9 86bd 074a 72bd
00000110: 7f4b 9fbd b48d a4bd f430 e0bb ac6e 2b3d
00000120: a644 183d 10e2 aa3d a113 613c 6ca9 50be
00000130: 9f6a 49be 6956 75be 7f11 1abe 93ab a8bd
00000140: 365d 8fbd 6ec9 9ebc b2a8 50bc 7d40 eb3c
00000150: c50e 1dbd 9462 b33c 75b1 503d c278 81bc
00000160: 75a1 8d3b 1307 293d 531a 8d3d fec2 693d
00000170: 7141 aa3d b474 ec3c d2db 883d 47f8 2f3c
00000180: 25bb 5e3c ce01 d63b 6294 453d 8938 0c3d
00000190: eeac 643d 5a19 183d 46bc af3d 6538 6c3d
000001a0: 5c42 bc3d 4354 783d 0b67 e03d 7223 af3d
000001b0: 6e2c 333d 7cbc ba3a eae7 7bbd bdcd bebd
000001c0: 684f 8bbd b4f1 bbbd 1bc9 05bd 2f7c cdbc
000001d0: 003c 18bb 33f9 bfbc b400 273d c053 ad3c
000001e0: 68d3 af3d 738e 9a3d 8e89 a83d 92d8 593d
000001f0: df97 c33d 58b7 e73c d61a eabc 8acf 783c
00000200: 1759 ab3d 4c88 053d f6b6 6a3d f399 b63c
00000210: 4d09 4c3b c85d c03d 4589 dc3d 6b40 0d3e
00000220: a5fe 813d 598e b83d a33b 383c bd51 0e3d
00000230: 3cfc ffbc fe31 31bd 2599 00bd 55d8 d3bd
00000240: c727 9cbd d736 a33c fe67 8e3c 57df 193e
00000250: fbe1 2e3e 9024 343e 4782 efbc c86b 383d
00000260: 2644 033d 1de8 823c cc3a 853b 301f 833d
00000270: d4cf eb3c 2eb6 083d 98e8 c63d 295d 803d
00000280: a1c4 a93d f3b3 c93c fe26 ab3d 4783 4f3d
00000290: 9795 b63c c2f4 dcbc e95f 4bbd 8760 3dbd
000002a0: 1dcb 2c3b adf5 b63c 41a8 223d f763 2f3d
000002b0: 3f6b eb3d e928 c83d 839b de3d 9abf d53d
000002c0: 08d4 533d 61a3 763c 5ab3 b4bc 4fa3 1c3d
000002d0: f991 a7bb d824 6cbd 6a9e 3b3c a8be cf3c
000002e0: f6e6 e33a 9643 d43c 7d30 2c3d b21d 5bba
000002f0: 860a 703d 4dfa 1b3d 13d3 8ebc 5e70 49bd
00000300: 7917 0fbd 6491 04bd 8ecb 08be 1a09 57bd
00000310: e214 09be d097 1bbd 7710 74bd 0cf6 20bd
00000320: 974f 42bc b195 753d f61d 8d3d ef1c b83d
00000330: e06d ba3d a969 193d e34c 963d 4cc4 803d
00000340: ff2b 673d d13b 96bc 7b6d 383d f646 3cbc
00000350: 56e6 093d f611 593d 8e97 b33c 2f4e a6bc
00000360: 2e54 7b3b 24ac b8bd 8c6b e1bd 5803 87bc
00000370: 0685 11bd 8111 09bd 8e8f a13c 9a81 233d
00000380: 5285 ef3c 9ede bd3d bb1b 7a3d 4a5b ba3d
00000390: ad76 d03c 9e40 893d 737a 593d 460c 483c
000003a0: 51c6 a7bc 89ae 3cbd 62bf 03bc ab01 27bd
000003b0: 074c c93c c872 5fbd b00e 74bd 9217 2dbd
000003c0: 313c a4bd e480 13be 06a4 b6bd 5bd6 dcbd
000003d0: 200d dbbd b757 4fbd faf1 aabc 4d0b 283d
000003e0: a6e7 3f3d d3b9 843d 56f4 a8bb 525f 993c
000003f0: 8432 c7bc cf5d 52bd afd8 9e3b 61c3 68bd

conv3.bias f4 [32]
-0.036224153 -0.06195011 -0.023653494 0.011045888 -0.02230195 0.049950942 0.050359465 -0.098376095
0.15190047 -0.07465595 -0.021093506 -0.033394825 0.08471599 -0.02768158 0.034505818 -0.05203926
-0.049110934 -0.099827364 0.002300485 -0.08083453 0.18179758 0.1306527 -0.058874525 -0.058056884
-0.037524156 -0.03530217 -0.038612813 -0.06485997 0.042399365 0.01691801 -0.072613314 -0.0033061965
00000000: c75f 14bd 66bf 7dbd f9c4 c1bc d0f9 343c
00000010: 94b2 b6bc 5c99 4c3d ba45 4e3d 6879 c9bd
00000020: cc8b 1b3e 38e5 98bd 4acc acbc 03c9 08bd
00000030: 947f ad3d 7bc4 e2bc f955 0d3d 1e27 55bd
00000040: 8c28 49bd 4a72 ccbd bcc3 163b 938c a5bd
00000050: 2529 3a3e d2c9 053e 6a26 71bd 0ecd 6dbd
00000060: eeb2 19bd 0299 10bd 7828 1ebd 4ed5 84bd
00000070: f5aa 2d3d a397 8a3c 4ab6 94bd c6ac 58bb

conv4.weight f4 [64, 32, 27]
-0.0373062 -0.033979062 -0.044152606 0.022461155 -0.007530682 0.012507038 0.023573441 -0.043103952
0.0008305683 -0.0015870505 0.0089388015 0.01923614 -0.010079752 -0.038302884 -0.008270684 -0.0034564782
-0.022428347 0.003810551 -0.013993193 -0.01935456 0.00040173382 0.02082533 -0.013837009 -0.00511952
-0.024494741 -0.03022695 -0.033168893 0.00948965 0.0154799465 0.0111819785 0.027074365 0.0041126297
-0.018223137 -0.020657508 0.0052340906 0.00046119298 0.030431686 0.011682952 -0.01886822 -0.03947651
0.0010721828 -0.0107492795 0.0046218527 -0.015747264 0.0047649015 -0.005232474 -0.0064144973 0.0027548212
0.018342594 0.010752243 0.029391032 0.019479927 0.00713205 0.029231692 0.0071365875 -0.015685746
0.026803186 0.028164394 0.0017507013 0.014237818 -0.008317967 -0.027467519 0.024890041 0.024758728
-0.0070748534 -0.027712643 0.011832497 0.024023412 0.019226205 -0.006742877 -0.026130363 -0.031140808
0.0016901877 -9.21455e-06 0.0002264153 0.017265312 0.027405089 -0.030979868 0.0031781243 -0.011518321
-0.033019125 -0.002726045 -0.005942995 -0.014129641 -0.0023505245 -0.021297405 0.011012557 -0.03575394
0.004945036 -0.030213246 -0.010443306 -0.042866897 -0.0035752258 0.0010977325 -0.030868055 -0.031494975
0.019039057 0.00914328 -0.04077962 -0.038475964 0.0146559505 -0.024534414 0.013286446 -0.00378403
-0.0017401081 -0.035136346 -0.026244534 0.013729264 0.0146518955 -0.031077161 -0.022263639 -0.027022239
-0.03932989 -0.0077462215 0.017111234 0.010995585 0.0029331483 -0.024730837 -0.029060438 -0.02211008
-0.0006116766 0.004368313 -0.014543886 -0.037373774 -0.034311943 -0.019783085 -0.035156935 -0.029874709
-0.006681132 -0.014918627 0.011744013 -0.011889596 -0.015343353 -0.007398598 0.0068372875 0.0015705847
-0.040895954 0.014222056 -0.033336114 -0.013290453 -0.022882922 0.00041894513 -0.01701288 -0.0014305513
-0.008325491 0.0026763896 -0.03426741 -0.012738123 0.02206011 -0.0027804049 -0.015246787 0.0071323756
-0.03340382 -0.038124587 -0.013629249 -0.032904934 0.014859926 -0.04049102 -0.017280867 0.0023273418
0.003152486 -0.013759935 -0.031884797 0.011814828 -0.0073412107 0.011974443 -0.012335532 -0.016029757
-0.008795958 -0.021275925 -0.006643211 0.021517359 -0.004080875 -0.016104996 -0.02846231 -0.034661856
-0.005063939 0.01413898 -0.03500665 -0.039240975 -0.007323658 0.0065774405 -0.034039628 0.005573795
0.027228234 -0.022729035 -0.0005209952 -0.013609773 0.02934799 0.006599384 0.012871479 -0.038967468
0.0020088311 0.024017632 -0.039049394 -0.010725095 0.0071810195 -0.037532143 -0.039586652 0.011126156
0.002069883 0.016581353 0.0077764955 0.020326765 -0.01596814 -0.003068614 0.017609296 -0.005760085
0.018827748 0.02684299 -0.0083413245 -0.023608923 -0.01594826 -0.016242893 -0.01076985 -0.03200438
-0.016860835 0.0045820284 -0.034601394 0.014731543 -0.042934284 -0.021786656 -0.020656357 0.010942788
-0.005521541 -0.032021746 -0.010338105 -0.010545603 -0.040779587 0.021336235 -0.041727267 0.0011410215
0.017183075 -0.034049083 0.0015584297 -0.018498031 -0.039883547 -0.03332395 0.023387033 -0.0142855765
-0.020843035 0.021675816 -0.0024079604 -0.025064228 0.019117916 -0.034902073 -0.00467058 -0.03676626
0.007284631 -0.022959558 -0.005681339 0.021735782 0.013334972 -0.03469055 -0.038613636 -0.013779288
00000000: 63ce 18bd a12d 0bbd 5dd9 34bd 7500 b83c
00000010: f0c3 f6bb 52ea 4c3c 171d c13c c58d 30bd
00000020: 7fba 593a 9404 d0ba 0d74 123c 1c95 9d3c
00000030: 8b25 25bc 7ce3 1cbd c381 07bc 1586 62bb
00000040: a7bb b7bc 70ba 793b b543 65bc 748d 9ebc
00000050: cd9f d239 e299 aa3c 9fb4 62bc a5c1 a7bb
00000060: 32a9 c8bc 829e f7bc 1bdc 07bd 7a7a 1b3c
00000070: 9a9f 7d3c 9e34 373c 0fcb dd3c 3dc3 863b
00000080: b048 95bc ef39 a9bc bc82 ab3b 46cc f139
00000090: df4b f93c da69 3f3c 8691 9abc 1fb2 21bd
000000a0: 7c88 8c3a bf1d 30bc e972 973b 6800 81bc
000000b0: e422 9c3b 2c75 abbb b430 d2bb 3b8a 343b
000000c0: 3543 963c 2d2a 303c 76c5 f03c 5e94 9f3c
000000d0: f9b3 e93b 4d77 ef3c 09da e93b 657f 80bc
000000e0: 5b92 db3c 04b9 e63c ca77 e53a bd45 693c
000000f0: 1548 08bc 9003 e1bc 33e6 cb3c d1d2 ca3c
00000100: 2cd4 e7bb a005 e3bc 17dd 413c bfcc c43c
00000110: 4680 9d3c 5af3 dcbb 580f d6bc 021b ffbc
00000120: 4a89 dd3a 3198 1ab7 e569 6d39 fc6f 8d3c
00000130: a380 e03c 7ec9 fdbc 1448 503b 57b7 3cbc
00000140: 103f 07bd 72a7 32bb 75bd c2bb 0280 67bc
00000150: 420b 1abb e577 aebc 036e 343c b972 12bd
00000160: f809 a23b c581 f7bc 661a 2bbc 3395 2fbd
00000170: 564e 6abb cae1 8f3a 01df fcbc e000 01bd
00000180: ccf7 9b3c b2cd 153c 8808 27bd f998 1dbd
00000190: 831f 703c 65fc c8bc 65af 593c 7dfd 77bb
000001a0: 5714 e4ba 21eb 0fbd c7fe d6bc b5f0 603c
000001b0: 810e 703c 8895 febc 3c62 b6bc be5d ddbc
000001c0: 6118 21bd 04d4 fdbb dc2c 8c3c d326 343c
000001d0: 103a 403b 5398 cabc 2810 eebc 3320 b5bc
000001e0: ec58 20ba 1124 8f3b 7b49 6ebc 3e15 19bd
000001f0: ae8a 0cbd 2310 a2bc b800 10bd cebb f4bc
00000200: 66ed dabb 426d 74bc f669 403c 94cc 42bc
00000210: b062 7bbc f06f f2bb 530b e03b 14dc cd3a
00000220: 8482 27bd a003 693c 738b 08bd 33c0 59bc
00000230: f774 bbbc dda5 db39 985e 8bbc 5681 bbba
00000240: a467 08bc 5e66 2f3b fc5b 0cbd 8fb3 50bc
00000250: 67b7 b43c 7437 36bb a9cd 79bc b4b6 e93b
00000260: 72d2 08bd 8728 1cbd 374d 5fbc 53c7 06bd
00000270: 0c77 733c e9d9 25bd 9b90 8dbc 5186 183b
00000280: f099 4e3b 5a71 61bc a299 02bd fb92 413c
00000290: 8a8e f0bb 7430 443c f91a 4abc d650 83bc
000002a0: ec1c 10bc d94a aebc 4baf d9bb 2c45 b03c
000002b0: dcb8 85bb a0ee 83bc ca29 e9bc 97f9 0dbd
000002c0: 66ef a5bb 2ea7 673c 2263 0fbd 25bb 20bd
000002d0: 4cfb efbb 9287 d73b 236d 0bbd 62a4 b63b
000002e0: bf0d df3c 3e32 babc 6593 08ba 86fb 5ebc
000002f0: 326b f03c a53f d83b e5e2 523c 5a9c 1fbd
00000300: 98a6 033b a0c0 c43c 42f2 1fbd 4fb8 2fbc
00000310: c24e eb3b 4ebb 19bd 9d25 22bd 7b4a 363c
00000320: e0a6 073b 9ed5 873c f9d1 fe3b 5184 a63c
00000330: 9ecf 82bc cd1a 49bb 5f41 903c 18bf bcbb
00000340: a63c 9a3c d5e5 db3c 0daa 08bc 8067 c1bc
00000350: eda5 82bc d10f 85bc 0674 30bc 0617 03bd
00000360: bc1f 8abc d724 963b 31ba 0dbd 925c 713c
00000370: dcdb 2fbd ee79 b2bc 8537 a9bc 6149 333c
00000380: 0bee b4bb 3c29 03bd 2861 29bc 77c7 2cbc
00000390: 7f08 27bd 54c9 ae3c 36ea 2abd 548e 953a
000003a0: 85c3 8c3c 0d77 0bbd 3944 cc3a 2f89 97bc
000003b0: ee5c 23bd b27e 08bd 2a96 bf3c 0d0e 6abc
000003c0: 03bf aabc 7b91 b13c dfce 1dbb 7f53 cdbc
000003d0: 2d9d 9c3c 7af5 0ebd aa0b 99bb 3898 16bd
000003e0: eab3 ee3b af15 bcbc 872a babb 3d0f b23c
000003f0: ed7a 5a3c ae17 0ebd 5529 1ebd 86c2 61bc

conv4.bias f4 [64]
0.012204844 -0.045320977 -0.025141407 -0.11022057 -0.022462273 -0.0023871695 -0.040972363 -0.057750616
0.06711493 -0.012745958 -0.052124802 0.04481951 -0.082201116 0.13279346 -0.050595053 -0.019815331
-0.091604926 0.060904883 -0.018037533 0.06504015 0.021640161 0.0037029812 -0.040642053 0.014533927
-0.01561502 -0.018454388 0.07255988 0.06642427 -0.03660009 0.011492755 0.11438876 0.004647892
0.005682742 -0.00972674 -0.06613469 0.018208269 0.060428955 -0.023270315 -0.031699196 0.121828765
-0.049618587 -0.027533306 0.0009786309 -0.021899741 0.007656 0.058647744 -0.07710901 -0.02288766
0.01744852 0.016439458 -0.00018226716 0.0076097 -0.025280628 -0.090288095 0.014672288 0.041661095
0.014986136 -0.06661869 -0.12717567 -0.046480015 -0.03853954 -0.0044172676 0.15082203 0.009386675
00000000: d3f6 473c 7da2 39bd 5af5 cdbc 52bb e1bd
00000010: cd02 b8bc 0f72 1cbb a3d2 27bd e98b 6cbd
00000020: 8d73 893d 6cd4 50bc d180 55bd aa94 373d
00000030: 0f59 a8bd 02fb 073e c23c 4fbd c353 a2bc
00000040: 5d9b bbbd 6677 793d 73c3 93bc c533 853d
00000050: b546 b13c b7ad 723b 4878 26bd b51f 6e3c
00000060: 24d6 7fbc a82d 97bc 469a 943d 7309 883d
00000070: fae9 15bd 1c4c 3c3c a744 ea3d 584d 983b
00000080: 4c36 ba3b e85c 1fbc a071 87bd 8229 953c
00000090: 5a84 773d 63a1 bebc 04d7 01bd 5c81 f93d
000000a0: dc3c 4bbd 878d e1bc 6745 803a 1667 b3bc
000000b0: 2fdf fa3b 9e38 703d 54eb 9dbd e77e bbbc
000000c0: 33f0 8e3c 0bac 863c f81e 3fb9 ca5a f93b
000000d0: 5219 cfbc f7e8 b8bd 0964 703c d3a4 2a3d
000000e0: 6988 753c 616f 88bd 573a 02be d461 3ebd
000000f0: a3db 1dbd babe 90bb 1771 1a3e 92ca 193c

lstm.weight_ih_l0 f4 [200, 64]
-0.05641186 0.056562148 -0.06444015 -0.014606554 -0.09666402 0.017151533 0.08423285 -0.103332385
-0.040955354 0.13383974 -0.0017638084 0.10124006 0.08804884 -0.15536846 0.10233569 0.024923313
0.040892392 -0.020836268 0.016983751 -0.059212796 -0.012392932 0.122897 -0.10965669 -0.08962634
0.17833818 0.039096277 -0.03366299 0.018457051 0.10266252 0.015904177 0.014965734 0.06569305
0.069331646 0.06445849 0.20057765 0.10645217 -0.07236521 -0.0092429705 -0.01312664 0.07428477
-0.0026143466 -0.042042892 -0.08875748 0.0955673 -0.13006257 0.070936985 0.04477553 -0.03317369
0.021778652 0.08735439 -0.020641474 0.16234376 0.10288974 0.10460729 -0.026748762 0.03534219
-0.09297712 0.010304318 0.008932261 0.12727617 -0.12065223 -0.07973915 0.1767258 0.014986607
0.12608956 0.10486691 -0.11957939 0.00758514 0.10728716 0.14020935 -0.09416809 -0.014733358
0.107189626 -0.0036959879 -0.025421094 0.12690644 -0.08408897 -0.084404126 -0.0713958 -0.13962202
-0.10666439 -0.11921828 0.06805181 0.11000213 -0.097925566 -0.008603858 -0.045425504 -0.053553417
0.09872671 0.14516625 -0.08914043 0.02813712 0.03798845 0.08107254 0.07423573 0.07689511
-0.081136115 0.06476593 0.16985631 0.075009115 -0.0668336 0.12574445 0.0933269 0.030205775
-0.09659007 0.010444526 0.042828433 0.016629362 -0.09324101 -0.047147945 -0.08734544 -0.15087728
0.0320592 -0.038907617 -0.08261256 -0.07865435 -0.0014599555 -0.065656215 -0.07944473 -0.084549755
0.049492143 0.017069137 0.14534667 0.16566357 -0.12511721 -0.01570837 0.063062996 -0.111545086
-0.1288577 0.029930567 -0.0026842998 0.1579344 -0.030343704 0.0681635 -0.08396948 0.07192868
-0.06386805 0.07671057 0.14571747 0.06818042 -0.098501675 -0.10579476 -0.05707609 -0.009979538
0.091670156 0.120421305 0.0007191742 0.08544655 0.0013444916 0.1483618 0.03738526 0.13810182
0.08809647 -0.03718133 -0.113825135 -0.004173335 0.13596149 0.00047438408 -0.3274659 -0.020728799
-0.08237843 -0.08965985 0.13970976 -0.09232042 -0.1350017 -0.122078724 -0.0067808484 0.055527348
-0.07544614 0.13876313 -0.089646436 -0.065752 0.087953605 0.06723563 -0.21560894 -0.050272964
0.048327032 -0.014756112 -0.064831324 -0.066525556 0.04744688 0.11592126 0.027916705 -0.10923855
-0.030049147 -0.107911415 -0.0053373156 -0.08024508 -0.046052396 -0.14660782 0.029840348 0.009255705
0.007904502 0.054416593 -0.116516925 0.16898014 0.025415387 -0.031997625 0.11316497 0.14924641
-0.06521333 0.031066244 0.1783289 0.02399396 0.024884818 -0.041649323 0.047911912 0.049419012
0.10784355 -0.00017319273 -0.11615706 -0.08182284 0.026282389 0.13497968 -0.06871902 -0.01200836
-0.033864178 -0.06471002 0.037961166 0.13589783 0.15091237 -0.0046585524 -0.091953985 0.14142959
0.060935106 -0.06515756 0.014804169 0.0706427 0.10737818 -0.093264356 0.060233787 -0.16524355
0.121674195 0.014832892 0.121076286 0.03183249 -0.01791265 0.074776255 0.123060666 -0.0134028
-0.122401536 0.11192143 0.05076271 -0.08514464 -0.030937932 -0.07019595 0.07936058 0.13932075
-0.0023064108 0.12816186 0.16518238 0.13142774 0.08500854 0.13028796 -0.03394723 -0.09373202
00000000: 1f10 67bd b6ad 673d 33f9 83bd 5450 6fbc
00000010: c9f7 c5bd 5f81 8c3c 4682 ac3d ee9f d3bd
00000020: cdc0 27bd 490d 093e 972f e7ba f356 cf3d
00000030: f352 b43d e918 1fbe 6095 d13d fa2b cc3c
00000040: c87e 273d d2b0 aabc 8221 8b3c 1e89 72bd
00000050: b90b 4bbc 6cb1 fb3d b093 e0bd 048e b7bd
00000060: 499e 363e 6b23 203d 34e2 09bd 3e33 973c
00000070: ba40 d23d 7a49 823c d732 753c 148a 863d
00000080: c0fd 8d3d d002 843d 3a64 4d3e 9803 da3d
00000090: 3634 94bd d46f 17bc 1e11 57bc 9d22 983d
000000a0: 7555 2bbb 2b35 2cbd 7bc6 b5bd cab8 c33d
000000b0: 1f2f 05be 6947 913d 8c66 373d 23e1 07bd
000000c0: 2569 b23c dce6 b23d 4f18 a9bc 713d 263e
000000d0: dbb7 d23d 593c d63d 3820 dbbc f9c2 103d
000000e0: ca6a bebd 71d3 283c 9e58 123c af54 023e
000000f0: 8418 f7bd 484e a3bd 9cf7 343e 638a 753c
00000100: 9f1d 013e 76c4 d63d 0ae6 f4bd c48c f83b
00000110: 5fb9 db3d 0a93 0f3e 33db c0bd 2f64 71bc
00000120: 3c86 db3d 6338 72bb e63f d0bc c3f3 013e
00000130: d736 acbd 12dc acbd f637 92bd 13f9 0ebe
00000140: dc72 dabd b728 f4bd bf5e 8b3d cc48 e13d
00000150: 338d c8bd 32f7 0cbc 1810 3abd d45a 5bbd
00000160: 3b31 ca3d 76a6 143e 428f b6bd d17f e63c
00000170: c799 1b3d 5c09 a63d e708 983d 2f7b 9d3d
00000180: b12a a6bd 00a4 843d d0ee 2d3e 619e 993d
00000190: 0ee0 88bd 27c3 003e 2c22 bf3d 1a72 f73c
000001a0: 04d1 c5bd 841f 2b3c de6c 2f3d 4d3a 883c
000001b0: 25f5 bebd 341e 41bd 2be2 b2bd 937f 1abe
000001c0: 8250 033d 985d 1fbd c630 a9bd 8815 a1bd
000001d0: fa5b bfba c476 86bd ebb3 a2bd 6c28 adbd
000001e0: 46b8 4a3d 93d4 8b3c c2d5 143e b6a3 293e
000001f0: ba1e 00be d7ae 80bc 2c27 813d c071 e4bd
00000200: 46f3 03be f330 f53c 14eb 2fbb 8eb9 213e
00000210: 5c93 f8bc 4e99 8b3d 31f8 abbd 584f 933d
00000220: 41cd 82bd 6e1a 9d3d f636 153e 2da2 8b3d
00000230: 3fbb c9bd ecaa d8bd 9ec8 69bd 3781 23bc
00000240: 90bd bb3d 729f f63d f786 3c3a 9afe ae3d
00000250: a739 b03a 28ec 173e 4921 193d 906a 0d3e
00000260: ec6b b43d 734b 18bd 271d e9bd 79c0 88bb
00000270: 7d39 0b3e c1b6 f839 9ca9 a7be 71cf a9bc
00000280: 06b6 a8bd 959f b7bd 1310 0f3e 7d12 bdbd
00000290: e33d 0abe 6904 fabd e131 debb a570 633d
000002a0: 8183 9abd ec17 0e3e 8d98 b7bd fca8 86bd
000002b0: 0521 b43d d5b2 893d 97c8 5cbe 06eb 4dbd
000002c0: 91f2 453d 9fc3 71bc 49c6 84bd 8d3e 88bd
000002d0: a957 423d 2068 ed3d 93b1 e43c 76b8 dfbd
000002e0: a129 f6bc a900 ddbd a6e4 aebb 8857 a4bd
000002f0: 70a1 3cbd 5c20 16be bf73 f43c 3ea5 173c
00000300: e281 013c efe3 5e3d 6da0 eebd 2109 2d3e
00000310: ee33 d03c f10f 03bd 09c3 e73d 0dd4 183e
00000320: 918e 85bd a37e fe3c da9b 363e fb8e c43c
00000330: 3fdb cb3c 7b98 2abd 483f 443d 976b 4a3d
00000340: 14dd dc3d 129b 35b9 c1e3 edbd bc92 a7bd
00000350: 2a4e d73c 1d38 0a3e 8fbc 8cbd b6be 44bc
00000360: 2ab5 0abd b086 84bd 2b7d 1b3d cd28 0b3e
00000370: c688 1a3e c5a6 98bb 5f52 bcbd ebd2 103e
00000380: 1797 793d 5471 85bd 2f8d 723c 1fad 903d
00000390: 17e9 db3d 6201 bfbd b4b7 763d 9b35 29be
000003a0: 5230 f93d a905 733c d8f6 f73d c962 023d
000003b0: 8dbd 92bc 4b24 993d 3b07 fc3d 6b97 5bbc
000003c0: a8ad fabd 1037 e53d 8fec 4f3d 5060 aebd
000003d0: 8c71 fdbc e5c2 8fbd cd87 a23d 19aa 0e3e
000003e0: 2727 17bb dd3c 033e 9225 293e fe94 063e
000003f0: f518 ae3d 356a 053e 400c 0bbd 93f6 bfbd

lstm.weight_hh_l0 f4 [200, 50]
-0.11049116 0.10048624 -0.067248926 0.19924085 -0.014030378 0.046406522 -0.20331255 -0.106438085
-0.19381082 0.054792494 -0.17383884 -0.018666845 0.039611034 -0.21924856 0.03383756 -0.044305887
0.0610539 -0.14193594 -0.0022956606 0.021183083 -0.014201581 -0.033038855 -0.032448094 0.044474512
-0.10319168 -0.004822901 0.04529887 -0.015961964 -0.086529575 -0.12490341 0.13590965 -0.08938858
0.008601845 -0.072720215 0.057980996 -0.025920294 -0.06660054 -0.09592509 0.051808212 0.04691529
-0.06846709 0.013898492 0.0011741383 -0.05999605 -0.067740105 0.11001912 0.070963375 0.07528107
0.05205283 0.21695198 -0.09961263 -0.013029501 -0.07524716 0.07792131 -0.12644137 0.0017696986
-0.11079434 0.069674544 0.087711655 0.045701407 -0.047331765 0.027466148 0.10068761 -0.14361955
0.07945705 0.15583478 -0.09768738 0.047005754 0.09168279 0.04292886 0.047185782 -0.06195563
-0.09176546 -0.0896583 -0.07205146 0.09245949 -0.0888413 0.10717032 0.004918846 0.064166635
0.104354635 0.012316036 0.06294684 0.06180323 0.020249091 -0.06490655 0.044545025 -0.0062317844
0.12005784 0.028579764 -0.0356473 0.18652001 -0.067338854 0.042482533 -0.1323649 0.0069985986
-0.10057217 0.08903368 0.18193507 -0.08803873 -0.010298367 -0.032398302 0.024582058 0.029299324
-0.016134603 -0.10366859 -0.11978383 0.0138154635 -0.09003119 0.08157559 -0.0047510434 -0.096723594
-0.12671675 -0.11790776 -0.050602376 -0.048125558 0.10122248 0.12197369 -0.046857096 0.14244594
0.06584858 -0.09232853 -0.015595647 -0.1231793 0.032039672 0.134021 -0.06320431 -0.115624584
-0.12573394 0.13468389 0.11717765 0.21615896 0.028962215 -0.0009247966 0.02697884 -0.054243494
-0.09781306 0.117200635 0.0043261983 0.079414696 0.10860184 0.09092594 -0.08340874 -0.026556335
-0.074333414 0.10983428 -0.10634191 -0.07222396 0.10257112 -0.029874459 -0.084805645 0.108471155
0.010583208 0.0941479 -0.017298931 0.13374749 -0.018124597 -0.073867254 -0.1476618 -0.12936836
-0.09474655 0.13644274 0.01991958 -0.09679471 -0.15459871 -0.0299385 0.13796113 -0.10361375
-0.036037587 0.03486616 -0.17403497 -0.06953918 -0.0017378303 0.19651286 0.11632683 0.08934513
-0.10328156 -0.069162995 -0.11133448 -0.12054334 0.11035765 0.11010114 -0.05619603 -0.026369672
0.08128133 0.1267672 0.091714025 0.06838711 0.109659635 -0.03379799 -0.12781179 0.16877297
-0.020611728 -0.05259773 -0.025613897 0.03369058 0.0286406 -0.03072771 0.039132223 -0.05952258
-0.14321534 0.003127294 0.046325184 -0.10240869 -0.11618246 -0.10785358 0.036833387 -0.22827211
0.047056958 0.15066206 0.0032703027 -0.15301281 0.14348389 -0.106321156 0.109450474 0.0767972
0.2394653 -0.29873294 -0.0641155 0.11864075 -0.07378799 -0.11257368 -0.02973416 -0.015730958
0.07624089 -0.11978465 -0.13818534 0.02629969 0.0663596 0.07834683 0.047284227 0.07250366
-0.0053425007 -0.011983035 0.07649945 0.05814897 0.041533224 -0.16104394 -0.04803864 -0.28957632
0.11598667 0.008171166 -0.1676102 0.03109731 0.016370926 -0.02531313 0.03760955 0.116867684
0.0041470663 0.07802581 -0.004389755 0.22842637 0.14383125 0.15300222 -0.2673371 0.18224947
00000000: 3049 e2bd bbcb cd3d ceb9 89bd cb05 4c3e
00000010: acdf 65bc c414 3e3d 2a31 50be 36fc d9bd
00000020: 5876 46be 186e 603d cf02 32be 36eb 98bc
00000030: 2e3f 223d b282 60be 4199 0a3d 177a 35bd
00000040: a713 7a3d a857 11be cb72 16bb 2588 ad3c
00000050: bfad 68bc c053 07bd 4be8 04bd e82a 363d
00000060: 2956 d3bd 6d09 9ebb 4f8b 393d aac2 82bc
00000070: 6b36 b1bd 5ccd ffbd e62b 0b3e 5c11 b7bd
00000080: c1ee 0c3c 56ee 94bd 7b7d 6d3d cc56 d4bc
00000090: dd65 88bd 6074 c4bd d934 543d 3f2a 403d
000000a0: 7938 8cbd 80b6 633c 8be5 993a 6bbe 75bd
000000b0: 53bb 8abd b451 e13d 3f55 913d f62c 9a3d
000000c0: 5935 553d a928 5e3e b501 ccbd b079 55bc
000000d0: 2f1b 9abd 3595 9f3d d979 01be 3bf5 e73a
000000e0: 25e8 e2bd 87b1 8e3d 2ba2 b33d 6631 3b3d
000000f0: f4de 41bd b000 e13c 4e35 ce3d 0111 13be
00000100: 61ba a23d 2793 1f3e 5210 c8bd 1b89 403d
00000110: 30c4 bb3d 2cd6 2f3d e145 413d 30c5 7dbd
00000120: 88ef bbbd c59e b7bd b78f 93bd 675b bd3d
00000130: 6df2 b5bd 1d7c db3d 452e a13b cc69 833d
00000140: e2b7 d53d 33c9 493c 46ea 803d 6225 7d3d
00000150: 6ce1 a53c baed 84bd d874 363d ff33 ccbb
00000160: e3e0 f53d 1c20 ea3c e702 12bd 1aff 3e3e
00000170: f4e8 89bd 2a02 2e3d aa8a 07be 8054 e53b
00000180: c8f8 cdbd 4a57 b63d 304d 3a3e a64d b4bd
00000190: 7bba 28bc 15b4 04bd 5060 c93c 2305 f03c
000001a0: b72c 84bc 3350 d4bd 3a51 f5bd 415a 623c
000001b0: 4662 b8bd 1a11 a73d a4ae 9bbb 0517 c6bd
000001c0: 09c2 01be a079 f1bd 7044 4fbd 4e1f 45bd
000001d0: bb4d cf3d 58cd f93d 3aed 3fbd 59dd 113e
000001e0: 9fdb 863d be16 bdbd e284 7fbc 6e45 fcbd
000001f0: 083c 033d cd3c 093e 4371 81bd 95cc ecbd
00000200: 66c0 00be 93ea 093e d6fa ef3d c658 5d3e
00000210: 2b42 ed3c 0d6e 72ba ba02 dd3c 6d2e 5ebd
00000220: 3752 c8bd e306 f03d c8c2 8d3b 2ca4 a23d
00000230: a46a de3d 6137 ba3d 34d2 aabd ac8c d9bc
00000240: 1e3c 98bd ccf0 e03d cac9 d9bd 28ea 93bd
00000250: cf10 d23d 48bb f4bc 95ae adbd 2026 de3d
00000260: 3165 2d3c 9dd0 c03d 7db6 8dbc 1af5 083e
00000270: 097a 94bc b747 97bd a834 17be 2479 04be
00000280: 7b0a c2bd a5b7 0b3e 632e a33c 4e3c c6bd
00000290: 204f 1ebe 9641 f5bc af45 0d3e 7233 d4bd
000002a0: 269c 13bd d2cf 0e3d 3936 32be 8f6a 8ebd
000002b0: e9c7 e3ba ab3a 493e c33c ee3d 94fa b63d
000002c0: 4885 d3bd 54a5 8dbd 5503 e4bd 6ddf f6bd
000002d0: 3103 e23d b57c e13d cf2d 66bd 3605 d8bc
000002e0: d376 a63d 43cf 013e 90d4 bb3d 8b0e 8c3d
000002f0: 3b95 e03d c36f 0abd 18e1 02be d2d2 2c3e
00000300: edd9 a8bc b870 57bd 3cd4 d1bc 22ff 093d
00000310: b19f ea3c aeb8 fbbc 1c49 203d f3cd 73bd
00000320: 0ba7 12be 49f3 4c3b 7abf 3d3d a6bb d1bd
00000330: 12f1 edbd 56e2 dcbd 9bde 163d 2ac0 69be
00000340: ccbe 403d 2847 1a3e 9352 563b 64af 1cbe
00000350: 71ed 123e e8be d9bd 9227 e03d da47 9d3d
00000360: 6436 753e 86f3 98be fd4e 83bd ecf9 f23d
00000370: 281e 97bd 088d e6bd 0e95 f3bc 36de 80bc
00000380: 2f24 9c3d a851 f5bd 7580 0dbe 7372 d73c
00000390: 8be7 873d 4e74 a03d 1bad 413d cd7c 943d
000003a0: 2510 afbb 7e54 44bc beab 9c3d 9d2d 6e3d
000003b0: be1e 2a3d b4e8 24be 2ac4 44bd 5943 94be
000003c0: 6b8a ed3d 5be0 053c 02a2 2bbe c9bf fe3c
000003d0: 521c 863c 7b5d cfbc 790c 1a3d 5358 ef3d
000003e0: 1de4 873b ffcb 9f3d efd7 8fbb 9ae8 693e
000003f0: 8048 133e 9dac 1c3e 69e0 88be 9b9f 3a3e

lstm.bias_ih_l0 f4 [200]
0.18714643 -0.008107001 0.10261324 0.08147647 0.07904394 -0.031754106 0.048797775 0.06390917
0.15666164 -0.056979023 -0.04482648 -0.10610625 -0.09422938 0.20636111 -0.1313845 -0.051008336
-0.041470308 0.041284878 -0.040033557 -0.07068022 -0.016390251 -0.059885923 -0.019596217 0.026682854
0.092904 0.08853466 -0.08153347 -0.009320385 -0.012187708 0.12664367 0.11967608 0.061759718
-0.1651526 0.0027812452 0.2055484 0.017652135 -0.02880467 0.08760016 0.10819257 -0.0057766694
0.08428957 -0.11242087 0.040118568 -0.04587061 -0.0170564 0.0584982 -0.2193519 -0.06652168
-0.11269321 0.09781662 0.043118756 0.0663125 0.15499808 0.087496534 -0.095873706 -0.10332851
0.07075819 -0.007970324 0.085782245 0.07588671 0.0594942 -0.08419296 0.06805456 0.106621556
0.0054758443 0.14613877 0.12225335 0.08263046 -0.0757431 0.18859398 -0.19324447 -0.07196038
0.046395887 0.13254724 0.1348513 0.07678747 0.092409775 -0.059750248 -0.091151744 0.058117863
-0.14730957 0.11166878 0.025491774 0.15089548 -0.09542842 -0.00879425 0.022445936 0.1458642
0.039815594 -0.0033191915 0.066695206 0.075457714 0.12679823 0.13944793 0.054583117 -0.06697487
0.061495546 0.072153784 0.13028279 -0.07830451 -0.14508939 0.08316084 0.13860199 0.112663515
0.10551821 -0.04910846 -0.023043633 0.18742533 0.050261293 -0.04655769 0.091283016 0.0060285074
0.118707135 -0.18679772 0.07959744 -0.0189022 0.050767 0.034763582 -0.10016604 0.012065104
-0.17687178 0.054425947 -0.13988052 -0.2339305 -0.012684428 0.015878676 -0.09010595 0.13079073
0.05479209 0.017743392 0.19228952 -0.15775113 0.12251524 -0.056856334 -0.04754425 0.12788555
-0.08960575 -0.069005266 -0.06465483 0.02424322 -0.11828024 -0.024981739 -0.0013496182 -0.046482567
0.03217361 -0.060378127 -0.050973926 -0.052396253 0.12286295 -0.1162128 -0.19326061 -0.059022687
-0.0741354 0.11205442 0.034814216 0.27364784 0.008628776 0.07693883 0.016413795 0.15565267
0.21797007 0.13185546 -0.07126391 -0.04222875 0.11610901 0.121072315 0.02624872 -0.049936756
0.025160475 -0.013997754 -0.09450245 0.14227676 -0.020356381 -0.07091354 -0.027645702 0.125078
-0.16162084 -0.075021885 0.040131915 -0.12303916 0.06766511 0.072741784 0.13355108 -0.06952031
0.068444066 0.0077611133 0.19636895 0.11988836 -0.02144281 -0.15327302 -0.10848513 0.028132968
-0.013698957 0.009198229 0.06887871 0.09336306 0.00039988937 -0.07699207 -0.059712075 0.221928
00000000: 50a3 3f3e 3ad3 04bc e426 d23d 23dd a63d
00000010: cae1 a13d 9810 02bd 2de0 473d d0e2 823d
00000020: e96b 203e d662 69bd f99b 37bd 3c4e d9bd
00000030: 55fb c0bd 5450 533e a989 06be 1eee 50bd
00000040: c5dc 29bd 551a 293d 3afa 23bd cbc0 90bd
00000050: d944 86bc f14a 75bd 3f88 a0bc 0096 da3c
00000060: 7444 be3d a951 b53d 05fb a6bd 87b4 18bc
00000070: f4ae 47bc e1ae 013e bc18 f53d c2f7 7c3d
00000080: c31d 29be 8d45 363b 487b 523e 369b 903c
00000090: c5f7 ebbc b667 b33d 1194 dd3d 374a bdbb
000000a0: 03a0 ac3d ea3c e6bd 5e53 243d d2e2 3bbd
000000b0: ddb9 8bbc cf9b 6f3d c99d 60be 853c 88bd
000000c0: b3cb e6bd 1454 c83d 4b9d 303d d9ce 873d
000000d0: d1b7 1e3e 6231 b33d 6f59 c4bd e69d d3bd
000000e0: abe9 903d f695 02bc 9aae af3d 7e6a 9b3d
000000f0: 31b0 733d 5c6d acbd 3060 8b3d 675c da3d
00000100: b66e b33b 67a5 153e f75f fa3d 293a a93d
00000110: 331f 9bbd c81e 413e e1e1 45be f75f 93bd
00000120: 9d09 3e3d 77ba 073e 7616 0a3e c042 9d3d
00000130: 5641 bd3d adbc 74bd c4ad babd ff0c 6e3d
00000140: 52d8 16be 9ab2 e43d 20d4 d03c 5884 1a3e
00000150: fa6f c3bd c215 10bc 8ae0 b73c 6d5d 153e
00000160: ad15 233d cb86 59bb 7f97 883d 9389 9a3d
00000170: 65d7 013e 70cb 0e3e 8c92 5f3d 1f2a 89bd
00000180: c1e2 7b3d 5dc5 933d da68 053e 1d5e a0bd
00000190: 5092 14be 3b50 aa3d aeed 0d3e 21bc e63d
000001a0: ee19 d83d f425 49bd 00c6 bcbc 6dec 3f3e
000001b0: c9de 4d3d 47b3 3ebd 97f2 ba3d c98a c53b
000001c0: ba1c f33d e747 3fbe fc03 a33d c9d8 9abc
000001d0: 0ff1 4f3d 4264 0e3d da23 cdbd b7ac 453c
000001e0: e01d 35be beed 5e3d d73c 0fbe 7a8b 6fbe
000001f0: 59d2 4fbc ff13 823c 7889 b8bd 01ee 053e
00000200: ac6d 603d 975a 913c 8be7 443e 8389 21be
00000210: 45e9 fa3d 30e2 68bd c2bd 42bd 6ef4 023e
00000220: 3883 b7bd a252 8dbd c069 84bd b899 c63c
00000230: e93c f2bd 81a6 ccbc ace5 b0ba 8164 3ebd
00000240: 7ac8 033d 0e4f 77bd 09ca 50bd 749d 56bd
00000250: 929f fb3d fa00 eebd 1ce6 45be c6c1 71bd
00000260: 4dd4 97bd ca7c e53d 5a99 0e3d 921b 8c3e
00000270: b65f 0d3c 1b92 9d3d 3976 863c 6a63 1f3e
00000280: 8c33 5f3e 1e05 073e d0f2 91bd 0ef8 2cbd
00000290: 90ca ed3d c3f4 f73d 8e07 d73c 7c8a 4cbd
000002a0: 571d ce3c d656 65bc 808a c1bd 00b1 113e
000002b0: 6dc2 a6bc 1e3b 91bd 3d79 e2bc 7214 003e
000002c0: ef7f 25be 13a5 99bd 5d61 243d f5fb fbbd
000002d0: 0194 8a3d a5f9 943d 9dc1 083e aa60 8ebd
000002e0: 672c 8c3d f050 fe3b f114 493e 0788 f53d
000002f0: d5a8 afbc 9af3 1cbe 742d debd 1c77 e63c
00000300: 9771 60bc 2bb4 163c 4810 8d3d 2235 bf3d
00000310: 3ea8 d139 05ae 9dbd a694 74bd 1841 633e

lstm.bias_hh_l0 f4 [200]
-0.07989533 0.019145086 -0.11317408 0.16553012 -0.101481825 0.06968726 0.11126643 0.16269325
0.005002104 0.08327703 -0.13665628 0.11643672 0.014495525 0.2292431 -0.07968724 0.042211227
-0.11876759 0.072168075 -0.018505968 -0.0553658 -0.011747825 -0.021530949 -0.17576854 0.07431824
0.10076536 0.015456295 0.122082464 0.12739168 0.05520662 0.0928463 0.1050335 0.0034891218
0.07806287 0.02085104 0.018653518 0.098754756 -0.12002911 0.0365651 0.16727763 0.20240134
0.08109177 0.100263715 -0.19771193 0.05373367 0.21023716 0.044837426 -0.13523193 -0.15849614
0.091204025 0.07086034 0.104669824 0.116714485 0.11605236 0.120204866 -0.04916344 -0.061736085
0.07662555 0.0155175235 0.05825631 0.0788489 0.09632621 0.10888663 0.04034347 0.17372268
-0.07811248 0.15688144 0.26341888 -0.115211196 -0.072068475 0.027516304 -0.12803227 -0.03911563
-0.0601824 -0.039752986 0.09812443 -0.09369366 0.07636736 0.18663438 0.13051508 0.09540303
0.09632864 -0.11617323 -0.030118953 0.005988962 0.1362688 0.18669644 0.12187784 0.013207808
0.11606203 0.02498604 -0.08452701 -0.11232775 0.050200786 0.1693125 0.07112623 0.018047288
0.17699887 0.05512885 0.07499969 -0.044584084 -0.0062964805 0.10679672 0.0137967495 -0.029855132
-0.14911945 -0.04905045 -0.13087493 0.013125902 0.16943842 0.14610071 -0.07853107 -0.09562679
0.14132728 -0.03841221 -0.0069758776 0.046804514 -0.01055964 -0.116944656 -0.03617079 0.031848192
-0.11890389 0.04873708 0.0029507012 -0.18235624 0.07266791 -0.043874633 0.08921167 0.1271471
-0.0821014 0.09692799 0.1519895 0.062462524 -0.0036497982 -0.073158465 -0.032401107 0.11502719
-0.13650578 0.020127378 -0.13832124 0.2095651 -0.10636049 0.09986605 -0.058220968 0.034943614
-0.1469049 -0.019388663 0.08441402 0.009400804 0.14571367 0.059693612 -0.22204462 0.057762153
-0.057265818 -0.13810243 -0.12129738 0.22454599 0.14162853 -0.0501307 0.17789511 0.08343652
0.029344581 -0.08634731 -0.037517566 0.015962746 0.20592904 -0.05070179 0.033232324 -0.20035082
0.014532462 0.09334162 -0.09169604 0.11969148 -0.16012527 0.071090505 0.16865903 -0.021871738
0.01063876 0.04294768 0.060374264 -0.036046814 -0.016307164 -0.02111252 -0.032785974 0.027184242
0.089107275 -0.0154388 0.21022321 0.04967568 0.17571878 0.03353675 0.14404236 0.049821466
-0.010709125 -0.0075085554 -0.009720195 0.057733014 0.082183175 -0.01809105 0.07980025 0.21529484
00000000: 2aa0 a3bd 28d6 9c3c d0c7 e7bd ba80 293e
00000010: b4d5 cfbd 32b8 8e3d a7df e33d 0f99 263e
00000020: b1e8 a33b 268d aa3d a0ef 0bbe 6076 ee3d
00000030: a37e 6d3c b4be 6a3e 1033 a3bd aee5 2c3d
00000040: 6c3c f3bd dbcc 933d d499 97bc 40c7 62bd
00000050: f379 40bc ac61 b0bc abfc 33be 2934 983d
00000060: 125e ce3d 663c 7d3c 5f06 fa3d f772 023e
00000070: 5620 623d 3326 be3d ce1b d73d c0a9 643b
00000080: 6ddf 9f3d cdcf aa3c 43cf 983c ef3f ca3d
00000090: d2d1 f5bd 49c5 153d d44a 2b3e 4c42 4f3e
000000a0: 7113 a63d 1057 cd3d ff74 4abe d617 5c3d
000000b0: 6948 573e 73a7 373d 3d7a 0abe d04c 22be
000000c0: 2dc9 ba3d 3a1f 913d 225d d63d 0108 ef3d
000000d0: dcac ed3d f82d f63d 9a5f 49bd fade 7cbd
000000e0: dbed 9c3d 363d 7e3c 2b9e 6e3d 887b a13d
000000f0: ad46 c53d f4ff de3d 323f 253d 5ce4 313e
00000100: 70f9 9fbd 87a5 203e d7de 863e d9f3 ebbd
00000110: a398 93bd df69 e13c e41a 03be b637 20bd
00000120: d281 76bd 07d4 22bd 76f5 c83d 76e2 bfbd
00000130: 7e66 9c3d 151d 3f3e bfa5 053e aa62 c33d
00000140: f347 c53d 3bec edbd 06bc f6bc 0e3f c43b
00000150: 0c8a 0b3e 5a2d 3f3e 179b f93d 9065 583c
00000160: eeb1 ed3d 86af cc3c 7f1c adbd 170c e6bd
00000170: 579f 4d3d 4260 2d3e a1aa 913d e8d7 933c
00000180: 313f 353e cace 613d 7099 993d cd9d 36bd
00000190: b552 cebb 3db8 da3d c30b 623c c092 f4bc
000001a0: c5b2 18be 20e9 48bd 1404 06be 060e 573c
000001b0: 4481 2d3e 6d9b 153e e6d4 a0bd fad7 c3bd
000001c0: 19b8 103e 1f56 1dbd e795 e4bb 17b6 3f3d
000001d0: 5702 2dbc ae80 efbd d327 14bd 4073 023d
000001e0: e283 f3bd 88a0 473d 8d60 413b 98bb 3abe
000001f0: ead2 943d e3b5 33bd 9cb4 b63d d932 023e
00000200: c724 a8bd 2f82 c63d 23a3 1b3e b4d8 7f3d
00000210: 7431 6fbb 1bd4 95bd 06b7 04bd 6093 eb3d
00000220: 2cc8 0bbe 2ce2 a43c 15a4 0dbe 3c98 563e
00000230: 87d3 d9bd 9286 cc3d 1c79 6ebd 0921 0f3d
00000240: 3d6e 16be f9d4 9ebc 42e1 ac3d d405 1a3c
00000250: f735 153e 4a81 743d aa5f 63be 0298 6c3d
00000260: 908f 6abd b96a 0dbe c36a f8bd 62ef 653e
00000270: 1207 113e d955 4dbd 232a 363e c4e0 aa3d
00000280: 0c64 f03c dcd6 b0bd 05ac 19bd 4ec4 823c
00000290: 10df 523e aeac 4fbd 9e1e 083d c428 4dbe
000002a0: 9019 6e3c e429 bf3d 22cb bbbd cf20 f53d
000002b0: e1f7 23be e697 913d f4b4 2c3e 5c2c b3bc
000002c0: 324e 2e3c e8e9 2f3d 014b 773d d3a5 13bd
000002d0: 9a96 85bc 2af4 acbc 964a 06bd 7db1 de3c
000002e0: e07d b63d 05f3 7cbc c144 573e ba78 4b3d
000002f0: a0ef 333e d55d 093d d77f 133e 9811 4c3d
00000300: 5375 2fbc 540a f6bb 7441 1fbc 7479 6c3d
00000310: a74f a83d af33 94bc 506e a33d 4076 5c3e
